assets/models/model_safe.tflite (tflite, 22504 bytes, 4 tensors)

arith.constant f4 [1, 16]
0.7428585 -0.58985764 -0.67035854 -0.77053887 -0.740897 0.8309961 0.21042842 0.5415554
0.61774075 -0.8249051 0.5514635 0.38428977 0.40726674 0.42070916 -0.5066765 -0.8677798
00000000: fa2b 3e3f e900 17bf 9e9c 2bbf 0942 45bf
00000010: 6dab 3dbf 29bc 543f 8c7a 573e 60a3 0a3f
00000020: 4224 1e3f fb2c 53bf b62c 0d3f a1c1 c43e
00000030: 4485 d03e 3167 d73e 8db5 01bf d126 5ebf

arith.constant1 f4 [16, 16]
0.5658601 0.42027047 0.6685349 -0.5386906 0.4895291 -0.2071656 -0.53076094 0.60657704
-0.37164652 0.12512912 0.36037427 0.40447873 0.6948846 -0.19009368 -0.41448328 0.18327768
0.66103655 0.7650179 -0.8173139 0.35637692 0.19682501 -0.21895866 0.36210018 -0.64148897
-0.7737605 -0.16039988 -0.824963 -0.19716385 -0.64392954 0.21084231 0.8055067 0.41755447
0.10639518 0.35863668 -0.2886582 0.38119695 0.75033617 -0.33594874 0.5329892 -0.52893335
-0.47781503 -0.5324678 -0.1277558 -0.30851275 -0.08155427 0.6527611 0.59652424 0.4304727
0.66415936 0.2730828 -0.6433819 0.45893496 0.42763507 -0.019491963 0.24650714 -0.6117632
-0.6184922 -0.44132942 -0.5955687 -0.018080572 -0.12473701 0.7316497 0.28704575 0.42511645
0.11151483 0.38716188 -0.7248694 0.4772759 0.5696866 -0.088528916 0.63207245 -0.1436217
-0.47848415 -0.6985022 -0.25638935 0.3699734 -0.39227456 0.6370121 0.5037677 0.7437822
-0.028788865 0.29540223 0.5529918 -0.49986503 0.5791879 -0.49120244 -0.5612183 0.04741638
-0.31271693 0.4493758 0.52459806 0.43218842 0.3646152 -0.25436935 0.03271916 0.26616177
0.11795868 0.43825117 0.29572955 -0.18989308 0.43374524 0.089665875 0.0041224556 0.3687819
-0.44119835 0.15919688 0.22632806 -0.077535376 0.62759393 0.14506254 -0.6487622 -0.13790919
0.6551576 0.46467298 0.5324604 -0.269528 -0.057141297 -0.52257365 -0.42758876 0.37198073
0.115903296 0.5625663 0.43280467 0.46777412 -0.07844337 -0.49112895 -0.7960629 0.3679253
0.60524666 0.24653096 0.25432384 -0.54302806 0.028915752 -0.6623404 -0.6443007 0.3572094
-0.44280872 0.6311315 0.27739835 0.58292824 0.32754183 -0.75245947 -0.27624413 0.2655292
0.32502958 0.578452 -0.076445445 0.28586254 0.6579983 -0.072850004 0.23711483 -0.509437
-0.46295974 -0.4837274 -0.71097684 -0.05535391 -0.5911816 -0.08883607 0.59271044 0.04126169
0.27446428 -0.14544474 -0.13089842 -0.33131188 0.0950353 0.31892022 0.29914594 0.22461902
0.14106253 -0.20379771 0.20378508 -0.25298125 0.0947021 0.07830431 0.10606349 0.3053956
0.73376185 0.33240095 0.237881 -0.6032762 0.6096965 -0.557053 -0.41574162 0.6852416
-0.03808527 0.17161086 0.622864 0.6942565 0.7141459 -0.6891785 -0.8424633 0.3485335
0.28701016 -0.4252124 0.17486504 0.0922277 0.19150166 0.50381356 -0.18440025 -0.27855605
-0.19355892 -0.09206248 -0.015438307 -0.08506163 0.0044012405 0.17230453 -0.37745583 0.1928729
0.44653705 0.29120177 0.47751653 -0.2305244 0.53221893 0.05288625 -0.3921855 0.7507252
-0.01880311 0.33126652 0.6234439 0.64188737 0.4841678 -0.78955984 -0.90178776 0.75680375
-0.021687936 0.3933187 -0.07495194 0.27454177 0.79910237 -0.34265256 0.79707676 -0.51884854
-0.7466386 -0.7932308 -0.399419 0.53811115 -0.42867327 0.8542714 0.87183344 0.03993752
0.6890772 0.2641626 -0.16748494 0.6348963 0.41932902 -0.2104281 0.5779767 -0.6213963
-0.21470022 -0.7106408 -0.514126 0.51115924 -0.70654297 0.5742543 0.37598816 0.65366536
00000000: 35dc 103f b12d d73e 1a25 2b3f a1e7 09bf
00000010: 8fa3 fa3e 3823 54be f3df 07bf a248 1b3f
00000020: 7448 bebe d921 003e fa82 b83e d617 cf3e
00000030: f5e3 313f eba7 42be 2737 d4be 25ad 3b3e
00000040: b139 293f 37d8 433f 7c3b 51bf 0977 b63e
00000050: 7f8c 493e b336 60be 3265 b93e 9f38 24bf
00000060: 2b15 46bf de3f 24be c630 53bf 52e5 49be
00000070: 91d8 24bf 0ce7 573e b035 4e3f b3c9 d53e
00000080: b7e5 d93d 3a9f b73e 02cb 93be 3f2c c33e
00000090: 0816 403f 7901 acbe fb71 083f 2d68 07bf
000000a0: 2ca4 f4be cf4f 08bf 6bd2 02be 62f5 9dbe
000000b0: ed05 a7bd 5a1b 273f d0b5 183f eb66 dc3e
000000c0: 5906 2a3f 82d1 8b3e adb4 24bf 86f9 ea3e
000000d0: fcf2 da3e 9cad 9fbc 5e6c 7c3e 839c 1cbf
000000e0: 8155 1ebf eef5 e1be 3177 18bf b51d 94bc
000000f0: 1e76 ffbd 654d 3b3f a9f7 923e dda8 d93e
00000100: e361 e43d 153a c63e 0a91 39bf 825d f43e
00000110: fbd6 113f a64e b5bd 80cf 213f 9111 13be
00000120: e0fb f4be 0ad1 32bf 7745 83be 276d bd3e
00000130: 36d8 c8be 3a13 233f ecf6 003f 8368 3e3f
00000140: a0d6 ebbc f63e 973e df90 0d3f 4fee ffbe
00000150: a945 143f e37e fbbe 01ac 0fbf ae37 423d
00000160: 6f1c a0be 9614 e63e 0f4c 063f cd47 dd3e
00000170: d8ae ba3e b33c 82be 8704 063d 5b46 883e
00000180: 5294 f13d 7562 e03e dd69 973e 5573 42be
00000190: db13 de3e bea2 b73d aa15 873b fbd0 bc3e
000001a0: c0e4 e1be 8204 233e 8bc2 673e deca 9ebd
000001b0: ffa9 203f 468b 143e 4815 26bf 1138 0dbe
000001c0: 69b8 273f 9ee9 ed3e 534f 083f 93ff 89be
000001d0: fe0c 6abd 63c7 05bf eaec dabe 4274 be3e
000001e0: b55e ed3d 5804 103f 9398 dd3e 1780 ef3e
000001f0: eba6 a0bd 4175 fbbe c7ca 4bbf b460 bc3e
00000200: 72f1 1a3f 9d72 7c3e bc36 823e e303 0bbf
00000210: bae0 ec3c 248f 29bf e4f0 24bf 27e4 b63e
00000220: d3b7 e2be d591 213f 2807 8e3e c93a 153f
00000230: 90b3 a73e 2fa1 40bf df6f 8dbe 71f3 873e
00000240: 476a a63e 6e15 143f 6e8f 9cbd 935c 923e
00000250: 9472 283f 6232 95bd 3bce 723e 776a 02bf
00000260: 0f09 edbe 1eab f7be 9402 36bf c8ba 62bd
00000270: ad57 17bf afef b5bd dfbb 173f 0502 293d
00000280: 9586 8c3e 77ef 14be 3c0a 06be b6a1 a9be
00000290: dea1 c23d 8349 a33e a829 993e 8702 663e
000002a0: b272 103e 59b0 50be 09ad 503e c286 81be
000002b0: 2df3 c13d 035e a03d d137 d93d d05c 9c3e
000002c0: d1d7 3b3f 7530 aa3e 1497 733e 4f70 1abf
000002d0: 1215 1c3f 079b 0ebf 16dc d4be fe6b 2f3f
000002e0: 4dff 1bbd c2ba 2f3e 0474 1f3f cbba 313f
000002f0: 44d2 363f 016e 30bf adab 57bf fc72 b23e
00000300: fff2 923e 71b5 d9be d20f 333e e0e1 bc3d
00000310: 0319 443e edf9 003f 6bd3 3cbe e69e 8ebe
00000320: 4f34 46be 418b bcbd f4f0 7cbc cb34 aebd
00000330: 4838 903b 9970 303e e441 c1be 7980 453e
00000340: 81a0 e43e 6618 953e 0c7d f43e 970e 6cbe
00000350: 803f 083f 419f 583d 8acc c8be 872f 403f
00000360: fb08 9abc c49b a93e 059a 1f3f bb52 243f
00000370: d8e4 f73e 9820 4abf 90db 66bf e4bd 413f
00000380: e6aa b1bc 1261 c93e 6780 99bd bd90 8c3e
00000390: f991 4c3f 2870 afbe 390d 4c3f 42d3 04bf
000003a0: b523 3fbf 2c11 4bbf a680 ccbe a7c1 093f
000003b0: 107b dbbe 88b1 5a3f 7a30 5f3f 8695 233d
000003c0: 5d67 303f 5240 873e 2c81 2bbe 9088 223f
000003d0: 4bb2 d63e 777a 57be 48f6 133f d413 1fbf
000003e0: 60da 5bbe 8eec 35bf c39d 03bf 55db 023f
000003f0: 00e0 34bf 5402 133f 8581 c03e 9d56 273f

functional_2_1/dense_2_1/BiasAdd/ReadVariableOp f4 [16]
0.06809666 0.3269286 0.30382103 0.28424507 0.26472133 0.051524974 -0.034100384 0.11895502
0.10385083 0.2722782 -0.06368023 0.11478372 -0.0669451 0.12268934 0.4015927 0.24500237
00000000: 4376 8b3d 2f63 a73e 6e8e 9b3e 9288 913e
00000010: 8e89 873e da0b 533d d8ac 0bbd b19e f33d
00000020: beaf d43d 0c68 8b3e c86a 82bd ba13 eb3d
00000030: 831a 89bd 8c44 fb3d 8f9d cd3e e7e1 7a3e

functional_2_1/embedding_1_1/GatherV2/ReadVariableOp i1 [1050, 16] scale=0.0053882394 zero_point=0
-0.0053882394 -0.048494153 0.043105915 0.021552958 -0.021552958 -0.026941197 0.026941197 -0.016164718
0.010776479 0.037717678 0.032329436 -0.021552958 0.026941197 0.021552958 -0.032329436 0.016164718
0.36640027 0.43644738 -0.26941198 0.44722387 0.42567092 -0.24785902 0.382565 -0.43644738
-0.52804744 -0.40411794 -0.40411794 0.29096493 -0.42028266 0.49032977 0.39334148 0.3286826
0.5873181 0.5118827 0.6412005 -0.58192986 0.39334148 -0.54421216 -0.5711534 0.6843064
-0.36101204 0.630424 0.630424 0.6142593 0.56576514 -0.66275346 -0.6196475 0.5927063
0.5549887 0.49032977 0.16164719 -0.16164719 0.382565 -0.43105915 -0.2047531 0.09160007
-0.5118827 0.08621183 0.10237655 0.43105915 0.15087071 -0.0053882394 -0.043105915 0.6142593
0.46877682 0.4795533 0.33407083 -0.35023555 0.3179061 -0.4526121 -0.382565 0.39334148
-0.36640027 0.382565 0.3286826 0.4526121 0.31251788 -0.35023555 -0.2586355 0.630424
0.42567092 0.43644738 0.40411794 -0.38795322 0.3286826 -0.46877682 -0.37717676 0.36101204
-0.382565 0.36640027 0.33407083 0.42028266 0.35023555 -0.34484732 -0.2586355 0.517271
0.33407083 0.3987297 0.26941198 -0.31251788 0.2748002 -0.37717676 -0.36101204 0.32329437
-0.26402372 0.3556238 0.3394591 0.31251788 0.31251788 -0.382565 -0.3286826 0.42028266
0.3394591 0.29096493 0.4526121 -0.43105915 0.21552958 -0.44183564 -0.43105915 0.49032977
-0.25324726 0.46877682 0.49571803 0.43105915 0.42567092 -0.53882396 -0.54421216 0.4095062
0.29635316 0.2855767 0.2748002 -0.30712965 0.22630605 -0.26402372 -0.32329437 0.29635316
-0.19936486 0.31251788 0.33407083 0.29635316 0.23708254 -0.3286826 -0.24247077 0.39334148
0.2316943 0.2748002 -0.21014133 0.22091782 0.26402372 -0.18320014 0.3179061 -0.30712965
-0.34484732 -0.3179061 -0.25324726 0.12931775 -0.24247077 0.22091782 0.382565 0.28018844
0.26402372 0.2748002 0.026941197 0.021552958 0.22091782 -0.17242366 -0.043105915 -0.0053882394
-0.2316943 -0.010776479 0.043105915 0.16164719 -0.021552958 0.09160007 0.07004711 0.32329437
0.18858838 0.059270635 0.19936486 -0.15087071 0.032329436 -0.12931775 -0.1778119 0.19397661
-0.13470599 0.2047531 0.15087071 0.1778119 0.13470599 -0.08621183 -0.12392951 0.113153026
0.14009422 0.23708254 -0.24785902 0.22091782 0.2316943 0.08082359 0.25324726 -0.24785902
-0.24247077 -0.2586355 -0.22630605 -0.07004711 -0.26941198 0.2586355 0.2748002 0.1778119
0.16703542 0.24247077 -0.2748002 0.28018844 0.1778119 0.06465887 0.21552958 -0.2748002
-0.23708254 -0.2748002 -0.30174142 -0.07004711 -0.28018844 0.2586355 0.2586355 0.2047531
0.19936486 0.24785902 -0.30712965 0.23708254 0.22630605 0.021552958 0.25324726 -0.31251788
-0.30174142 -0.22630605 -0.22091782 -0.08621183 -0.2855767 0.2316943 0.3179061 0.2586355
0.24247077 0.19936486 0.11854127 -0.14009422 0.19397661 -0.17242366 -0.1778119 0.11854127
-0.18858838 0.12392951 0.16164719 0.22091782 0.16703542 -0.18320014 -0.18320014 0.26402372
00000000: fff7 0804 fcfb 05fd 0207 06fc 0504 fa03
00000010: 4451 ce53 4fd2 47af 9eb5 b536 b25b 493d
00000020: 6d5f 7794 499b 967f bd75 7572 6985 8d6e
00000030: 675b 1ee2 47b0 da11 a110 1350 1cff f872
00000040: 5759 3ebf 3bac b949 bc47 3d54 3abf d075
00000050: 4f51 4bb8 3da9 ba43 b944 3e4e 41c0 d060
00000060: 3e4a 32c6 33ba bd3c cf42 3f3a 3ab9 c34e
00000070: 3f36 54b0 28ae b05b d157 5c50 4f9c 9b4c
00000080: 3735 33c7 2acf c437 db3a 3e37 2cc3 d349
00000090: 2b33 d929 31de 3bc7 c0c5 d118 d329 4734
000000a0: 3133 0504 29e0 f8ff d5fe 081e fc11 0d3c
000000b0: 230b 25e4 06e8 df24 e726 1c21 19f0 e915
000000c0: 1a2c d229 2b0f 2fd2 d3d0 d6f3 ce30 3321
000000d0: 1f2d cd34 210c 28cd d4cd c8f3 cc30 3026
000000e0: 252e c72c 2a04 2fc6 c8d6 d7f0 cb2b 3b30
000000f0: 2d25 16e6 24e0 df16 dd17 1e29 1fde de31
